### Summary ###
==========================================================================================
Layer (type:depth-idx)                   Output Shape              Param #
==========================================================================================
├─Sequential: 1-1                        [-1, 128, 56, 56]         --
|    └─Conv2d: 2-1                       [-1, 128, 56, 56]         6,272
|    └─LayerNorm2d: 2-2                  [-1, 128, 56, 56]         256
├─Sequential: 1-2                        [-1, 1024, 7, 7]          --
|    └─ConvNeXtStage: 2-3                [-1, 128, 56, 56]         --
|    |    └─Identity: 3-1                [-1, 128, 56, 56]         --
|    |    └─Sequential: 3-2              [-1, 128, 56, 56]         415,488
|    └─ConvNeXtStage: 2-4                [-1, 256, 28, 28]         --
|    |    └─Sequential: 3-3              [-1, 256, 28, 28]         131,584
|    |    └─Sequential: 3-4              [-1, 256, 28, 28]         1,617,408
|    └─ConvNeXtStage: 2-5                [-1, 512, 14, 14]         --
|    |    └─Sequential: 3-5              [-1, 512, 14, 14]         525,312
|    |    └─Sequential: 3-6              [-1, 512, 14, 14]         57,424,896
|    └─ConvNeXtStage: 2-6                [-1, 1024, 7, 7]          --
|    |    └─Sequential: 3-7              [-1, 1024, 7, 7]          2,099,200
|    |    └─Sequential: 3-8              [-1, 1024, 7, 7]          25,344,000
├─Identity: 1-3                          [-1, 1024, 7, 7]          --
├─NormMlpClassifierHead: 1-4             [-1, 5]                   --
|    └─SelectAdaptivePool2d: 2-7         [-1, 1024, 1, 1]          --
|    |    └─AdaptiveAvgPool2d: 3-9       [-1, 1024, 1, 1]          --
|    |    └─Identity: 3-10               [-1, 1024, 1, 1]          --
|    └─LayerNorm2d: 2-8                  [-1, 1024, 1, 1]          2,048
|    └─Flatten: 2-9                      [-1, 1024]                --
|    └─Identity: 2-10                    [-1, 1024]                --
|    └─Dropout: 2-11                     [-1, 1024]                --
|    └─Linear: 2-12                      [-1, 5]                   5,125
==========================================================================================
Total params: 87,571,589
Trainable params: 87,571,589
Non-trainable params: 0
Total mult-adds (M): 674.46
==========================================================================================
Input size (MB): 0.57
Forward/backward pass size (MB): 14.17
Params size (MB): 334.06
Estimated Total Size (MB): 348.81
…
